models/QQQ/QQQ_lstm_model_20250521_001252.pth (torch, 45550 bytes, 5 tensors)

lstm.weight_ih_l0 f4 [200, 1]
000000 a6 5f f7 3d ba fd c1 3d 8c 9a f9 3d 8a 24 2b 3d
       0.1207879 0.094722226 0.121876806 0.041782893
000010 97 0e e5 bd 69 26 fc bc 67 07 cc bd 62 bf 93 3d
       -0.111844234 -0.030780034 -0.099623494 0.07214238
000020 d6 35 f7 bd dd 77 be bd 41 60 cb 3d 99 c0 ea bc
       -0.12070815 -0.09300206 0.09930468 -0.02865629
000030 b5 46 e4 bd f1 9c 43 3d f5 54 e0 3d d7 0d e0 3c
       -0.11146299 0.047757093 0.10953704 0.02735035
000040 b0 f9 ec bd 2d 85 1f 3e ab c3 b6 3d 15 b3 95 3d
       -0.115710616 0.15578146 0.089240395 0.07309548
000050 b1 0d cb 3d b4 71 87 bd 1d a1 43 bd ba 35 ba bd
       0.09914721 -0.06613484 -0.04776107 -0.09092279
000060 01 2e 66 bd 32 d1 86 bc 4e 5c 1d be 8e 03 35 bd
       -0.056196216 -0.016457174 -0.15367243 -0.044192843
000070 13 e5 0b ba 30 43 18 3c 93 2a 27 bd 1c 00 3a 3d
       -0.0005336564 0.0092933625 -0.040812086 0.04541026
000080 49 1a 6c 3d f5 8b bd bc 1c 34 89 bd c0 8c e0 bd
       0.057642255 -0.023138026 -0.06699392 -0.10964346
000090 ad 79 bb 3d 99 f4 29 bd 58 7f bd bd 47 c5 21 3d
       0.09154067 -0.041493032 -0.092528045 0.03949478
0000a0 24 51 58 3d 1e 95 24 3c 59 fc fc bd 51 9d 45 bd
       0.052811757 0.010045318 -0.12352819 -0.04824573
0000b0 5f dd d9 bd fb 61 58 bc 5c b2 c3 bd 41 08 2e 3e
       -0.10637926 -0.013206954 -0.09555504 0.16995336
0000c0 7c 07 ec 3d 53 07 de 3d a1 2f 5d bd 48 5f 5b bd
       0.11524865 0.10841241 -0.0540005 -0.053557664
0000d0 2d b2 b9 3d 77 40 3e bd 47 ff d0 bd 74 ab 94 bd
       0.090671875 -0.046448197 -0.1020494 -0.072592646
0000e0 c8 6b 1b 3e 5b ca 9d bd 90 ce 03 bb b3 54 36 3d
       0.15177834 -0.07704612 -0.0020112135 0.04451437
0000f0 3a 0a 24 be 1e 90 17 3e 8a 8e 44 3d 5a 50 8d bd
       -0.16019526 0.1480107 0.0479875 -0.069000915
000100 86 8a be bd d6 17 a4 bd ca cb 9c bc e7 4f 3d bd
       -0.09303765 -0.08012359 -0.019140143 -0.04621878
000110 a2 e0 fa bc 61 de ba 3d d8 b8 ec bd 6c 46 63 bd
       -0.030624691 0.09124447 -0.11558694 -0.05548708
000120 1d 84 1a bd e1 d4 65 3d 1c eb a9 bd d0 a3 01 bd
       -0.03772365 0.05611122 -0.08296797 -0.031650364
000130 e6 24 56 3c fc 70 c5 bc cf 8f 3c 3d 48 dc 04 3d
       0.013070321 -0.024101727 0.046035584 0.03243664
000140 a8 82 ec bd 74 6d 24 3e b2 f9 1b 3e 56 00 ff bd
       -0.11548358 0.16057378 0.1523197 -0.12451236
000150 a7 be 09 3d bc 52 bb 3d 7a 36 17 be a2 0e f2 3d
       0.033629086 0.0914664 -0.14766875 0.11819197
000160 82 3f 22 be e5 d5 e9 3c a4 f5 2b bd 89 43 a6 3d
       -0.15844539 0.028544376 -0.041982308 0.0811835
000170 ed 02 01 be 6e 34 d6 3c 32 46 eb bd e3 83 91 bd
       -0.12598772 0.026148047 -0.11487998 -0.071052335
000180 1e 9f 8d bd cd 76 2c 3d af d2 0d 3e b8 4e 04 3e
       -0.06915115 0.042105485 0.138499 0.12920654
000190 1a eb 1d be 90 74 3a 3d 2a 65 95 bd 4f a3 26 bd
       -0.15421715 0.04552132 -0.07294686 -0.040683087
0001a0 00 0c e5 3d f0 9f c5 bc 15 52 22 3c f8 40 68 bd
       0.111839294 -0.024124116 0.009907265 -0.056702584
0001b0 a5 46 04 3e 26 da c5 bd 5d 4a e8 3d 97 4e 97 3c
       0.12917574 -0.09660749 0.11342309 0.018470092
0001c0 ff b4 77 bd 91 33 ab bc 64 0d ec bd 21 3a 74 3d
       -0.060475346 -0.020898612 -0.115259916 0.05962575
0001d0 46 ff 55 bd 0e 15 ca bb 82 f4 3c 3b 77 c5 b0 bc
       -0.0522454 -0.0061670607 0.0028832261 -0.021578534
0001e0 3c b3 b3 bd 57 46 df bd 8f 88 fd 3c c3 62 ee bd
       -0.087744206 -0.10902088 0.030948905 -0.11639931
0001f0 89 6c a4 3c af b9 e7 3c 09 e6 a6 3d a9 af 2a bd
       0.020071285 0.028286783 0.081493445 -0.04167143
000200 9e 8d 04 be 0f 03 b9 bd 54 b6 0a be 25 4e e8 bc
       -0.12944648 -0.090337865 -0.13546115 -0.028357575
000210 51 68 a4 bc bb 13 1f bd 4c 98 a4 bc e0 38 a5 ba
       -0.020069273 -0.038837176 -0.020092152 -0.0012605451
000220 44 47 4d 3d d0 42 0a 3e 6e f6 c6 3d cc 25 9c 3d
       0.050116792 0.1350205 0.097149715 0.07624397
000230 21 e5 fb bc a7 46 00 bd c8 b8 5d bd a1 b1 27 3d
       -0.030748906 -0.03131738 -0.0541313 0.040940885
000240 64 ad 15 bd 64 ea 7f bd 10 42 0e bd 73 b1 e7 3d
       -0.03654231 -0.06247939 -0.03473097 0.11313143
000250 0a 35 ef 3d e5 7f 1e 3d 40 e0 e0 3c 8e 39 e8 3d
       0.11680038 0.03869619 0.02745068 0.11339103
000260 c4 b6 ae 3c 1b 3c f3 3d 1d 97 23 bd 7a 47 bc bc
       0.021327384 0.118766986 -0.039939035 -0.022983301
000270 3b 37 ec 3d 82 72 ee 3d 4f 26 6e 3d 3e d6 c6 bd
       0.11533972 0.116429344 0.058142003 -0.09708832
000280 67 73 01 3c 63 36 7d bd 46 5c e1 3d c9 ba d0 3d
       0.007901049 -0.061819445 0.11003928 0.101918764
000290 c3 ba 03 be 7b 99 49 3d fe 40 0e 3d e0 96 96 bd
       -0.12864213 0.049218636 0.03472995 -0.07352996
0002a0 46 0f 7a bd be 03 b5 3d d3 8b 55 bd 77 17 e9 3d
       -0.061049722 0.088386044 -0.0521353 0.11381429
0002b0 bb 9e 97 bc 9a 3a c0 3d e6 1c b0 bb dc be 6e bd
       -0.018508306 0.09386177 -0.0053745387 -0.058287486
0002c0 71 ed 17 3d 9c 7b 32 3e 8d b6 c1 3d 85 d2 fe 3c
       0.037091676 0.17429966 0.09458647 0.031106243
0002d0 e7 2e 09 be 4b ea cc 3d 24 bb fd 3d e2 6c cc 3d
       -0.13396798 0.10005625 0.1238921 0.09981705
0002e0 29 30 0b 3e 9b cd 66 3d db 24 f1 bd f4 5d d7 3d
       0.1359259 0.056348424 -0.11774608 0.10515967
0002f0 f2 ca dc bd 61 e6 9f 3b 81 75 94 3d cf b8 d1 3d
       -0.10780896 0.004879758 0.072489746 0.102403276
000300 79 ba 3d bd 50 2f 30 3d 28 fb b9 3d 0d 3e ad bd
       -0.046320412 0.04301387 0.090811074 -0.08459101
000310 61 63 bf bd ad d8 bb bd 28 9f e4 bb a0 06 12 3e
       -0.09345127 -0.09172187 -0.0069769807 0.1426034

lstm.weight_hh_l0 f4 [200, 50]
000000 c2 8c a0 bd 06 cf 9e bd c3 f0 d2 bd e7 31 ed 3c
       -0.078393474 -0.0775433 -0.10299828 0.02895446
000010 8d ec f9 3c 1a 88 c2 bc 77 df ea 3d 13 ac 38 3c
       0.030508304 -0.023746539 0.11468404 0.011271494
000020 c9 ec af bc 6e 32 0f be e1 ee b5 bd c3 b7 e2 bd
       -0.021475213 -0.13984081 -0.08883453 -0.11070206
000030 c3 da 78 bd 4b 3a 45 bc c4 f5 8c bc bf 2e f2 3c
       -0.060755502 -0.012037824 -0.017207034 0.029563306
000040 bb 07 87 bd e4 76 47 bb 8f 4c b0 3b 85 63 13 be
       -0.06593271 -0.0030435855 0.0053802202 -0.14393432
000050 ba d8 0a 3e 5f 4b dd bd f9 3b e7 3c f4 c8 dc 3d
       0.13559237 -0.108053915 0.02822684 0.10780516
000060 71 9d 20 3e 83 13 af 3c 4d b9 01 3e 48 48 b9 3d
       0.15685059 0.021371609 0.12668343 0.0904699
000070 ed f5 6c 3d bc b2 03 be 1c 97 04 3e 19 19 8f 3d
       0.05785172 -0.1286115 0.12948269 0.06987209
000080 3f 7c b8 bc ca 7e 40 bd e4 9f ab bc d7 c9 1f 3d
       -0.022520183 -0.046995915 -0.020950265 0.03901085
000090 32 de a7 bd c2 2d c8 bd e6 d5 3b bd af a2 0f 3d
       -0.08196677 -0.097743526 -0.045858286 0.035067257
0000a0 46 c4 c1 3d db c2 f5 3d 33 64 58 3d e3 b1 f6 3b
       0.09461264 0.12000056 0.052829932 0.00752853
0000b0 c6 21 86 3d 9c f7 1a 3e 52 45 ed bd cb e4 11 bd
       0.065494105 0.15133518 -0.115854874 -0.035618585
0000c0 91 d8 d1 bd c0 79 2d 3b 6c 1d 55 bc 81 93 5e 3d
       -0.10246385 0.0026470274 -0.013007503 0.05433989
0000d0 ba cf 56 3d de dc 9f 3c c4 42 ca 3d cb ad db bd
       0.052444197 0.019514497 0.09876016 -0.10726508
0000e0 60 4c 1e 3e 6c 4d 02 bb 92 7f 08 3d 52 31 9e bd
       0.15458822 -0.0019882573 0.033324786 -0.07724251
0000f0 d4 73 dc 3d 13 19 c5 bd 97 92 c7 bd af ba 13 bd
       0.1076428 -0.09623923 -0.09744757 -0.036066707
000100 22 e7 24 be 48 9d 04 3d 7d b6 d8 bd 94 aa 3a bd
       -0.16103795 0.032376558 -0.10581682 -0.045572832
000110 b5 95 11 3e 08 42 d8 3c 47 c0 ff 3c 91 cf bb bd
       0.14217265 0.026398674 0.031219615 -0.091704495
000120 a1 4f 3f 3c 28 b3 03 be d4 cd 8e bd 51 a4 d2 3d
       0.0116767 -0.12861311 -0.06972852 0.10285247
000130 3c 2e 22 bd 31 c0 1f 3e 02 e9 75 3d e5 c4 cd bc
       -0.039594874 0.15600659 0.060036667 -0.0251183
000140 f9 53 e2 3d ea 6d 44 3c 1a c0 0a 3d 77 73 6f 3c
       0.11051173 0.011989096 0.03387461 0.014614931
000150 10 c7 9c 3d b3 04 b7 3d 58 f1 32 bc ae c8 27 be
       0.07655156 0.08936443 -0.010921799 -0.16385147
000160 8d cf 17 be a7 d2 84 bd 77 3c c3 bd 25 95 79 3d
       -0.14825268 -0.06485491 -0.09533017 0.06093325
000170 eb 03 55 bd 7f cb 1e be 87 39 a8 bd 3c 0e 07 3c
       -0.05200569 -0.15507315 -0.082140975 0.00824314
000180 a9 f7 86 bd 64 35 d3 3d 39 b3 79 3d aa a7 23 3a
       -0.06590206 0.10312918 0.060961936 0.00062429404
000190 ff ff 16 3d 87 3f 43 3d 58 2c 0b bd 42 d6 95 bd
       0.03686523 0.047668006 -0.033977836 -0.07316257
0001a0 8e c9 1d bd eb 92 f3 3d ba b5 b8 3c df 4a a5 bd
       -0.038522296 0.11893257 0.022547591 -0.08070921
0001b0 4f 14 d2 3c 96 f9 a5 3d 9b f0 96 bd 40 8f a9 3d
       0.02564445 0.08104245 -0.073701106 0.08279276
0001c0 64 3b 80 bc f3 19 0d be 9e a4 85 3c 9a a7 bd bd
       -0.01565332 -0.1377943 0.016313847 -0.09260483
0001d0 36 1b bc bc 3f c5 bd 3c 2f 0c ca bd 1f 22 73 3c
       -0.022962194 0.023165343 -0.09865605 0.014839678
0001e0 46 a1 80 bb 09 73 01 be ee 37 03 3e 1e aa d1 bd
       -0.0039254753 -0.12641539 0.12814304 -0.102375254
0001f0 4c 63 ca 3d ce 98 64 bd dd 84 1a 3e 90 6e bf 3d
       0.098822206 -0.05580979 0.15089746 0.0934726
000200 78 e5 96 3d 93 28 b0 3d 19 5f df 3d 82 cd e3 bd
       0.073679864 0.08601489 0.1090681 -0.11123182
000210 b0 0d 38 3d d5 e0 2f bd 74 ab 92 bd a6 24 56 bd
       0.04493493 -0.042939026 -0.07161608 -0.052281044
000220 dd 49 df 3c 96 37 0d bd e5 92 8a bd 28 cf 78 3d
       0.0272569 -0.03447684 -0.06766299 0.060744435
000230 09 56 d2 3d 15 07 09 3d ec 23 24 bd 22 7e 96 bd
       0.10270316 0.03345402 -0.04007332 -0.07348277
000240 43 ac c9 3d 29 c3 b6 3d 9f e4 09 bd 5b ca c5 3d
       0.098473094 0.089239426 -0.033665296 0.09657737
000250 d0 80 6e bd ce 8e 29 3e 92 c1 db bc 51 45 cf bc
       -0.058228314 0.16558382 -0.0268257 -0.025301607
000260 b1 77 1e 3e 93 a4 19 3d de 12 ea 3d b3 de 5a ba
       0.15475346 0.037510466 0.1142938 -0.0008349225
000270 f5 46 88 bd aa 1c eb 3d 0a f1 81 bd af 6c a4 bd
       -0.06654159 0.114800766 -0.06344803 -0.08028542
000280 97 65 06 bd ce 72 95 bd 90 bc cf bd 04 ca a3 bc
       -0.032811727 -0.07297288 -0.10143387 -0.01999379
000290 d5 8b 4f 3d 02 75 97 3d a3 7e 10 bd b5 f2 f4 3c
       0.050670464 0.07395364 -0.03527702 0.029900888
0002a0 31 74 c5 bd 0b 43 5e 3c ac 28 80 3d db 46 27 bd
       -0.096413024 0.013565789 0.062577575 -0.040839057
0002b0 7d a2 f7 3c ea ab ea bd 3b ab 09 3e 5c ae a5 bd
       0.030228848 -0.11458571 0.13444225 -0.08089897
0002c0 32 10 9b bd b1 09 30 3d 0a fd 50 bd 3f 1d cf 3d
       -0.075714484 0.042977992 -0.051022567 0.10113
0002d0 ad da ad bd 6a 7f 15 3e cb 80 ce bd c0 54 65 bd
       -0.08488975 0.14599386 -0.10083159 -0.055989027
0002e0 7a 15 1c bd 5d be c1 3d 9b 7f 94 3d 66 b5 0e bd
       -0.03810642 0.09460137 0.07250901 -0.034840964
0002f0 9d 75 2e be 4e af 8a 3d 7d 45 1f be 80 f8 9d 3d
       -0.17037053 0.06771718 -0.15553851 0.07713413
000300 b1 0c 49 bc f0 c1 fb 3c 8c 3b 37 3b 7f bb 22 3c
       -0.012271092 0.030732125 0.0027959077 0.009932398
000310 2b 97 ce bc f4 7c fa 3d b8 ca 7e bd a0 01 0f 3e
       -0.025218567 0.12230864 -0.062205046 0.13965464
000320 74 8a af bd cc 93 ef bc cb 2c b1 bd ce bb b6 3d
       -0.0857133 -0.02924528 -0.08651122 0.0892254
000330 3c b6 8b 3d c5 50 bc 3c eb 91 fb 3d 4d 27 4a 3d
       0.06821868 0.022987733 0.12283691 0.049353886
000340 da d5 bd bc 4b 85 a4 bd 65 fc d7 3b a4 7d 35 3d
       -0.023173261 -0.08033236 0.006591367 0.044309273
000350 e6 2e f4 bd 31 95 85 3d 3a f7 c9 3d de 42 9e bc
       -0.11923008 0.06522597 0.09861608 -0.019318994
000360 bc ff c5 bd 88 0b b2 3d 0e eb 12 be 37 5a d2 ba
       -0.09667918 0.08693606 -0.14347479 -0.0016048615
000370 1d 47 c7 bd 60 4d e1 3d ee af 17 3d 91 cd cc bd
       -0.09730361 0.11001086 0.037033014 -0.10000146
000380 8e 8d 59 bd 4d 4e d1 bd 5a 5e f9 ba 85 94 aa 3c
       -0.053113513 -0.10220013 -0.0019025311 0.020822773
000390 37 f8 b3 bd ea 74 d0 bd 95 3e 8b bd 27 64 76 bd
       -0.087875776 -0.101785496 -0.06799046 -0.060154106
0003a0 29 87 75 bc 7b 8b 8a 3d cb 6d a3 3a 1e a6 a9 bd
       -0.014985838 0.06764885 0.0012468634 -0.082836375
0003b0 5a de 89 bd 74 1f b7 3b 0f ff 11 3e d8 f0 b2 bd
       -0.06731863 0.0055884663 0.14257453 -0.087373435
0003c0 42 88 9e bd 95 81 d4 3c 0f ba c4 3d 68 65 e2 bd
       -0.07740833 0.025940696 0.096058 -0.11054498
0003d0 36 b7 cd 3d 87 a4 92 bd 2c 4e 3c 3c 6b 29 b5 3d
       0.1004471 -0.07160287 0.011493247 0.088457905
0003e0 1d 80 09 be 4c 56 8f 3c 13 d3 44 bd 49 9c 1d bd
       -0.13427778 0.017497204 -0.04805286 -0.038479123
0003f0 a7 43 56 3d 6d 04 54 3d fc 21 a2 3d d8 52 c5 3d
       0.052310612 0.051762033 0.07916638 0.09634942

lstm.bias_ih_l0 f4 [200]
000000 16 60 44 3d 10 dd b4 3d a0 a6 8a bd 5f 96 0e 3d
       0.047943197 0.08831227 -0.067700624 0.034811374
000010 81 d2 cc 3d db 90 09 bd 69 e6 aa bc 8e e1 d3 3c
       0.10001088 -0.03358541 -0.020861821 0.025864389
000020 b0 1a 12 3d d7 b3 3f 3d 46 55 8c bd 4a a7 3c 3d
       0.035669982 0.046802368 -0.06852202 0.046057977
000030 2b 1c 2b 3d 6f 24 c5 bc 89 03 46 ba 18 e9 0d bd
       0.04177491 -0.024065224 -0.00075536274 -0.034646124
000040 29 f7 87 bb da ac 18 3e aa d1 ff 3d c8 42 6f 3d
       -0.004149337 0.14909688 0.12491162 0.058413297
000050 4a 2c ac bc 14 59 c3 bd 9b 4e 75 3d 85 47 b5 3d
       -0.021017212 -0.09538475 0.059889417 0.08851532
000060 e0 a6 05 bd b7 0f 3a bd 78 13 08 be 46 f6 1e 3e
       -0.032629848 -0.045425143 -0.13288677 0.15523633
000070 ed 9e 50 3d b5 ab ac 3d ca 93 0a be 26 46 27 bd
       0.050932813 0.08431188 -0.1353294 -0.040838383
000080 30 3c 1f 3e 2f 85 88 bd 15 51 f1 bc 63 df ee bd
       0.15550303 -0.06666028 -0.029457608 -0.116637014
000090 d7 1b 1c 3d c2 9e 35 3d ad 97 8a 3b 49 e0 52 bd
       0.038112488 0.044340856 0.004229507 -0.051483426
0000a0 34 9a 69 bd 6c a5 6e 3d a7 ec 2e 3d 97 e6 c1 3d
       -0.057031825 0.058263227 0.042706158 0.0946781
0000b0 5c 11 52 bd 3a 88 d6 3d dc 44 d5 bb c0 0c 85 3d
       -0.051286086 0.10475202 -0.006508453 0.064965725
0000c0 06 b5 44 3d 62 8b af 3d 87 c6 06 3e ef 02 fc 3d
       0.0480242 0.08571507 0.1316167 0.12305247
0000d0 84 ef d2 bc f4 19 87 bc 95 4b 4f 3d e5 1d a1 bc
       -0.025748976 -0.016491868 0.05060919 -0.019667575
0000e0 ac 30 e6 3d 6e 06 b4 3d 06 9a a9 bc 20 6d 86 3d
       0.11239752 0.08790289 -0.020703327 0.06563783
0000f0 5f 08 c6 bd 50 05 c4 3d 02 3b 00 3d 11 21 8f bd
       -0.096695654 0.09571326 0.031306274 -0.06988729
000100 42 52 c3 3d b3 ca ca 3d 79 91 05 be f7 24 af 3d
       0.09537174 0.09901943 -0.13043775 0.08551972
000110 10 0b b8 3d 48 8a 0a 3d f1 51 1c bd 53 c1 d6 bd
       0.08986485 0.03382328 -0.038164083 -0.104860924
000120 0e c6 2b 3d 79 88 15 3c 01 01 7b bb 84 58 dc bd
       0.041936927 0.009126776 -0.003830016 -0.107590705
000130 84 bb b0 3d 47 4a ac bc 4a 66 c7 3d 97 ee c8 bc
       0.08629516 -0.021031512 0.09736307 -0.024527831
000140 61 f0 75 3c 32 bd f7 ba c3 ce 5a bd da 6e f6 3d
       0.015010924 -0.0018900989 -0.05341984 0.12032862
000150 09 d5 98 bd d5 ff de 3d 25 51 db 3d 21 2b fe bd
       -0.07462508 0.1088864 0.107088365 -0.1241057
000160 61 a2 88 bd 87 dc a9 3d 35 fb 8c 3c a4 7a ba 3d
       -0.06671596 0.082940154 0.017209629 0.09105423
000170 4d dc eb 3d b5 ff a2 3d 1d 00 90 3d e3 d1 ea 3d
       0.115166284 0.079589285 0.070312716 0.11465814
000180 ec 6d f1 bd ae 7b 99 3b 86 9e 0b 3d fd 61 bf bb
       -0.11788544 0.004683933 0.034086727 -0.0058405385
000190 dd fa 53 bd 9c 78 fa bd e1 d2 20 3e 2f dd 28 3d
       -0.051752914 -0.12230036 0.15705444 0.041226562
0001a0 50 61 89 3d 28 ac 88 3b 1e 0c c5 3d 82 d0 d8 3d
       0.06708014 0.0041709132 0.09621452 0.10586645
0001b0 1c 9f e8 bd bb 3b 4b bd 29 85 b1 3d dc 65 15 be
       -0.11358473 -0.04961751 0.086679764 -0.14589638
0001c0 8f e0 b1 3a 7c 91 85 bd ba 84 84 3c 7b 7a bb 3b
       0.0013570952 -0.065218896 0.01617657 0.005721388
0001d0 fa 9e de 3d ca d2 05 be c2 a8 a8 3d 92 12 fc 3c
       0.10870166 -0.13068691 0.08235313 0.030770574
0001e0 89 9a d6 bc 11 32 d4 bd 9d 27 8e 3d 93 83 3a bc
       -0.026196735 -0.10361112 0.069411494 -0.011383909
0001f0 b3 6a 58 3c 9d c2 2e 3e 6a b4 62 bc 8c 10 17 3e
       0.013209033 0.17066427 -0.013836959 0.14752406
000200 c0 6d 02 bd 6e 88 df 3c 79 aa 6a 3d ed 46 0d 3e
       -0.031842947 0.027286734 0.05729148 0.13796587
000210 23 df 29 be 7f 9f 9f 3c 8c 8c 57 3d 8c 49 c5 bd
       -0.16589026 0.019485233 0.05262427 -0.096331686
000220 72 36 5e bc 2a d0 24 bd b6 19 ae bd d9 20 83 bd
       -0.013562785 -0.040237583 -0.08500998 -0.064027496
000230 0d e5 a3 3c ef 7d 13 3d 73 c7 c4 bd 92 d6 b6 bd
       0.02000668 0.03600877 -0.096083544 -0.08927645
000240 09 5c 55 3d 03 c0 df 3d e7 d4 c2 bd 2e 0f 16 bd
       0.052089725 0.10925295 -0.09513264 -0.03663557
000250 86 d6 08 3e f8 0a ca 3c 9f 10 d0 3d d7 a3 83 bd
       0.13363084 0.024663433 0.1015942 -0.06427734
000260 99 25 b3 3d 24 09 be 3b f5 7e c2 bc b7 42 00 be
       0.087474056 0.0057994295 -0.023742178 -0.1252545
000270 47 e9 1a 3e 3d 2d f8 bd 99 02 49 bd d3 51 47 bd
       0.1512805 -0.121180035 -0.049074743 -0.048662018
000280 13 86 25 be 8a 57 b0 3d 17 d7 f0 3c 8a 61 4b bd
       -0.16164427 0.08610447 0.029399438 -0.049653567
000290 e8 2d e6 3d 39 ff f1 3d 07 38 d8 bd 0d e3 ac bd
       0.11239225 0.11816258 -0.10557561 -0.08441744
0002a0 2b 00 92 bc bb eb 97 bd f4 b8 a5 3c 70 05 0c 3e
       -0.017822346 -0.07418009 0.020229794 0.13673949
0002b0 28 87 2f 3e 8e ba 5a 3b fc 58 9d 3d 15 8e 74 3d
       0.17141402 0.0033375355 0.07682988 0.059705812
0002c0 65 d8 16 be 6f 10 60 3c 35 6d b5 3d 1d 60 ad 3c
       -0.14730985 0.013675793 0.0885872 0.021163994
0002d0 ae c6 0f bc d2 e5 20 3d 52 b0 58 3d 0f a5 19 be
       -0.008775396 0.039281674 0.052902527 -0.15004371
0002e0 53 f0 20 bd 37 67 03 3e a2 d2 4f bd bf 99 d0 bd
       -0.03929169 0.12832342 -0.050737984 -0.10185575
0002f0 f3 8f b7 bc 7d c6 65 3c a8 0b 0f 3e 23 21 87 bd
       -0.022407508 0.014024374 0.1396929 -0.06598117
000300 6c 53 49 bd 34 5a 04 3e ad da 0e bc 20 24 50 3d
       -0.049151823 0.12925035 -0.008719129 0.0508157
000310 68 ce 07 be 0e f0 a0 bd 74 b4 90 bc 68 ae ae bc
       -0.13262331 -0.07858287 -0.017664172 -0.021323398

lstm.bias_hh_l0 f4 [200]
000000 2e 56 73 3c 2f ae 34 3e 65 49 95 3d 60 2c 85 bc
       0.01485209 0.17644571 0.072893895 -0.016256511
000010 49 5d ab 3d 16 ba bc bd ae c5 a3 bd 42 4c 41 bd
       0.08367402 -0.092151806 -0.07996689 -0.047191866
000020 8d 31 03 bd 41 af d2 3d 6d 03 13 3d e0 10 a5 3d
       -0.032029677 0.10287333 0.03589194 0.08059859
000030 93 e9 1c bc 94 90 d3 3c ad 98 e3 bd 31 7a 2d 3c
       -0.009577173 0.025825776 -0.11113105 0.010588215
000040 61 46 f8 bd cc e0 23 3d 6e 1b d3 3d 7e 50 c9 3d
       -0.12122799 0.040009305 0.10307966 0.09829806
000050 77 3e b8 3d 55 0c a1 bd 60 75 c4 3d 75 16 2e 3d
       0.08996289 -0.0786368 0.095927 0.042501885
000060 af 98 ad bd 36 07 53 3d a2 e6 ed 3c d1 71 94 3d
       -0.08476388 0.05152055 0.029040638 0.07248271
000070 35 c6 b3 3d 07 95 b7 bd 37 a6 a8 bd 8c 38 b0 3a
       0.08778039 -0.089639716 -0.08234828 0.0013444587
000080 58 9b 70 bc cd c7 ce bd 0f aa 8a 3d bb 5d f6 bd
       -0.014685474 -0.10096703 0.06770717 -0.120295964
000090 28 ae c5 3d a3 2a eb bb 33 b0 54 3d 9b a3 0f 3e
       0.09652358 -0.0071767136 0.05192585 0.14027254
0000a0 e1 d9 38 bc f2 e4 25 bd 0f 9b fb bd b4 69 a2 bd
       -0.011282415 -0.040501542 -0.122854345 -0.079303175
0000b0 6f 01 8c 3d 4c 36 b4 3d 2a fc 11 be c2 9d 1c 3e
       0.06836211 0.08799419 -0.14256349 0.15294555
0000c0 dd 34 1a 3c 78 c1 1c 3d d2 7d 08 3e c9 6b 76 3c
       0.009412018 0.038270444 0.13329247 0.015040346
0000d0 58 6a 62 ba 7d e1 3e 3d 37 cc e8 3d 54 51 95 bc
       -0.0008637062 0.04660176 0.11367076 -0.018227257
0000e0 d2 dd 16 3e f3 04 0b 3d 88 71 8e bd 3e 75 a2 3d
       0.14733055 0.033940267 -0.06955248 0.079325184
0000f0 87 9a 24 be dc 72 f7 3d 0c 15 1a bd cb fc b0 3d
       -0.16074573 0.120824546 -0.037617728 0.086419664
000100 e2 ef 5c bc 64 19 a7 bd 08 19 09 3e 3d fc ad 3d
       -0.013484927 -0.0815914 0.13388455 0.08495376
000110 04 32 9e bd 99 2d ee 3c b3 fc b8 3d 18 9a 8e 3d
       -0.077243835 0.029074477 0.090325736 0.06962985
000120 8a 3b 6d 3d 4f 7d 2c 3d e0 e8 e1 bd 43 e1 aa bc
       0.05791811 0.04211169 -0.110307455 -0.020859366
000130 de d6 bc bd e2 34 fa bc 65 2d c2 bb e9 db 6d bb
       -0.0922067 -0.030542795 -0.0059258216 -0.0036294407
000140 f5 77 3a 3d 84 9a 8e 3d 8b bf c0 bd 8d 7b de 3d
       0.045524556 0.06963065 -0.09411534 0.10863409
000150 7e 35 11 3e 8d 61 73 3c d0 a4 48 3c 47 56 a2 bd
       0.14180562 0.014854801 0.012246326 -0.07926612
000160 1f 2d cb bd e4 f1 1a 3e 22 3a 4b 3b 4d 77 ea 3c
       -0.099207155 0.15131336 0.0031009992 0.02862134
000170 8f 9a 56 bb a7 45 3f 3b 5d 24 0b 3e 51 6c 82 3d
       -0.0032745933 0.0029185803 0.1358809 0.06368316
000180 4b 02 15 be 96 5b ab bd e1 97 b4 bc 04 99 43 3d
       -0.14551656 -0.08367078 -0.022045078 0.04775335
000190 94 4c cb 3d f1 c8 0b be d3 3e d7 3d 29 a5 c7 3d
       0.099267155 -0.13650872 0.1051003 0.09748299
0001a0 51 f8 4b 3d 87 f5 24 3d c8 5c cf 3d ae 68 e2 bd
       0.04979736 0.040273216 0.101251185 -0.11055122
0001b0 38 e9 52 bc 75 43 d7 3d 3a 49 07 bd c8 9c 0d be
       -0.0128729865 0.10510913 -0.03302882 -0.13829339
0001c0 da 6f 8a 3d d8 de 96 bd a6 6e e1 bc 5c b4 17 3c
       0.06759615 -0.07366723 -0.027518582 0.00925931
0001d0 7e f6 11 bc 8b d8 f3 3b 95 e4 64 bb af 8b 1a bd
       -0.008908866 0.0074415854 -0.0034926285 -0.03773087
0001e0 25 10 18 3e 2e d1 17 be c6 4a 2d 3e 6b a8 cb bd
       0.14849909 -0.1482589 0.16923055 -0.099442326
0001f0 32 2a 23 3d 9c 1c 7f 3c 6b ec 25 3d 3f 93 08 3e
       0.039835162 0.015570786 0.04050867 0.1333742
000200 b3 57 b0 3d 3c 0f d5 bd d5 c6 19 3d 67 8f b5 3d
       0.08610477 -0.10403296 0.037543137 0.088652425
000210 d6 e3 b9 3c 9c b9 e2 3d 0a 1b db 3d da 08 9b bd
       0.022691648 0.110705584 0.10698517 -0.07570048
000220 9a 0a ff bb 14 04 a8 bd 53 6b 9e bc 93 7c c1 bd
       -0.007783246 -0.08203903 -0.019338286 -0.09447589
000230 8f bb 2d be ba dd f4 3d 6e 52 e4 3d 45 0f 05 be
       -0.16966079 0.119563535 0.11148535 -0.12994106
000240 82 97 af 3d d3 9b 30 3e 75 fc 10 3e ee af 7c 3d
       0.0857382 0.17246942 0.14158805 0.061691217
000250 4d bc 7e bd bd 0d 12 3e 3c 0a 16 3e 16 52 24 3d
       -0.062191296 0.14263053 0.14652342 0.040117346
000260 ad ab 86 3d ad a0 c3 bd ea d8 77 bd 45 27 b1 bc
       0.06575713 -0.09552131 -0.0605096 -0.02162517
000270 e8 10 38 3c fb 97 b1 3d e7 de 60 bd d5 bc 72 bd
       0.0112344995 0.08671566 -0.054900076 -0.059262116
000280 43 a0 ae 3d 63 1f d3 bc b7 87 14 3c c3 c9 83 3d
       0.08526661 -0.025771802 0.00906556 0.06434967
000290 80 9f 73 3d b5 9b 22 bd e0 b5 07 ba d0 4c c2 3d
       0.059478283 -0.039699275 -0.0005176943 0.09487307
0002a0 3c 43 1b 3e 77 f6 bc bc 45 f5 12 3d ca 79 24 3e
       0.15162367 -0.023066742 0.03587844 0.16062084
0002b0 e2 75 ab 3c 93 b7 93 3c ff 05 f5 bc aa 18 47 3c
       0.020930234 0.018031871 -0.029910086 0.012151876
0002c0 f5 b4 5d bd 3f 21 0c 3e 14 f6 b9 3b 00 2d 98 bd
       -0.054127652 0.13684557 0.0056750868 -0.07430458
0002d0 85 35 1b 3d 08 e2 d4 bd 69 ea af bc cc 81 49 bd
       0.037892837 -0.103946745 -0.02147408 -0.04919605
0002e0 3c 9d 85 3d df 84 0d be 17 da 25 bd 97 c2 b3 3d
       0.06524131 -0.13820218 -0.04049119 0.087773494
0002f0 d3 de 98 bd 62 9b 0a 3d 18 bd 14 3e b9 1c b7 3d
       -0.07464375 0.03383959 0.14525259 0.08941025
000300 85 d8 10 bd 88 94 9d bd 4a 01 90 bd c4 2e 29 3e
       -0.03536274 -0.07694346 -0.07031496 0.16521746
000310 b9 33 39 bd 23 1c c9 3d 71 35 0b 3e cf a5 0d bd
       -0.045215342 0.0981982 0.13594605 -0.034581956

fc.weight f4 [1, 50]
000000 9a 76 fe bd cb 3f 10 be 2f 00 ab 3d 2e 8d 12 3e
       -0.12424965 -0.14086835 0.083496444 0.14311668
000010 67 77 86 bb 4a 17 67 bd 8c b2 08 3d 83 88 7c bd
       -0.0041035893 -0.056418695 0.0333734 -0.061653625
000020 a8 3c ca 3d 82 bf 67 bd 97 cd 99 bd 0a 5e ee bd
       0.098748505 -0.05657912 -0.07509916 -0.1163903
000030 9b 16 8e bd 97 3d 0b bd 52 40 eb 3c 33 8e 9b bd
       -0.069379054 -0.033994284 0.028717194 -0.07595482
000040 c0 b4 48 3d a4 19 22 be b9 b9 01 3d 54 21 be 3d
       0.0490005 -0.15830094 0.03167126 0.092837006
000050 ef 03 13 3e 4c 4b 24 be d9 38 a7 3d 53 55 0d bd
       0.1435697 -0.16044348 0.0816514 -0.0345052
000060 b9 a3 41 bd e2 d1 71 3d f8 b1 70 bd 10 e2 6e 3d
       -0.04727528 0.05903805 -0.058763474 0.05832106
000070 69 25 51 bd d7 77 2c 3d af d4 cc bc 71 c0 d3 3d
       -0.051061068 0.042106476 -0.02500376 0.1033944
000080 47 53 74 bd 5d da b1 3c ad 88 19 3e 0d ed 0d bd
       -0.059649732 0.021710569 0.14993544 -0.034649897
000090 2c 90 b1 3d 6f 7c cd 3d b9 ba d1 3d b7 3f 18 be
       0.08670077 0.100334994 0.10240693 -0.14868055
0000a0 77 91 dc bd d3 cd c3 bc d8 95 07 be 92 c3 ab bd
       -0.10769933 -0.023901856 -0.13240755 -0.083869115
0000b0 18 ff d3 3d 23 f4 2d 3e be b3 a2 3d 11 80 5d 3d
       0.1035139 0.16987662 0.07944439 0.05407721
0000c0 b9 05 d4 3c 50 58 08 3e
       0.025881635 0.13314939
